models/arch/~/tmp.pth (torch, 962515 bytes, 60 tensors)

conv1.conv_l.model.0.weight f4 [64, 1, 3, 3]
-0.005404155 0.051374674 -0.08652298 -0.1870397 0.12655687 0.1341525 -0.15576856 0.12586913
0.15596454 -0.012561321 -0.09593761 -0.23101056 0.27365944 0.10879012 0.275832 0.2209919
-0.07300147 0.14975414 -0.09449947 -0.25413048 -0.31511244 0.09344113 0.020680428 -0.30043802
-0.245666 0.27781272 -0.019871911 0.24250233 0.2400994 0.09776171 -0.23188365 0.08098682
-0.1496232 0.087353945 -0.2429856 -0.067437015 0.15827191 -0.193887 -0.049079776 -0.030133765
-0.212745 0.25676772 0.16622822 -0.27889085 0.16519544 0.12932155 0.030591529 0.112467885
0.21779323 -0.27867556 0.21947134 -0.24455425 0.31852493 -0.3091002 0.22679071 -0.3067598
-0.15309457 0.1599797 0.14217862 -0.13509652 -0.07559371 -0.19772892 0.24211848 -0.3254628
-0.21283472 0.008255164 -0.06813272 -0.32679385 0.23155233 0.20537543 0.20702621 0.30735022
-0.32131666 0.014211893 -0.2527543 -0.2869339 -0.01778539 0.2870395 -0.29711983 -0.31670988
0.010103147 0.015460571 0.06869205 -0.21481435 0.32236993 0.29837406 -0.046611786 0.12769835
-0.26252493 0.16207004 -0.11496075 0.25999987 -0.09492397 0.041056715 0.11380796 0.23508947
-0.33066687 0.09736514 0.15375781 -0.09797566 -0.30550188 -0.07393603 0.02432537 -0.27285475
0.2093049 -0.2561364 0.20738304 -0.2966234 -8.622806e-05 0.22308259 0.12805967 0.21145868
0.21128087 0.08509521 -0.32507953 0.21779868 0.12346097 0.08908081 0.0367078 -0.27141488
0.0007878145 0.22173092 0.30417418 -0.27161464 0.011273226 0.25673264 -0.31919724 -0.23659274
-0.034685295 -0.30744755 -0.26602936 0.16255395 -0.22854285 0.13894407 0.044684015 -0.13375199
-0.3198892 -0.0564578 0.30764648 -0.08171217 0.10206811 -0.14420617 0.22042322 -0.15780215
0.3145624 0.038040638 0.037392855 -0.2700894 -0.108947836 0.15034258 0.20560221 0.03546242
-0.17633843 -0.25715208 0.3157276 0.015032093 -0.2590643 -0.28828955 0.113632366 0.3127405
-0.153036 0.0011465152 0.3143575 -0.026178917 0.16031599 0.15312946 -0.038743578 -0.16047291
-0.014158845 0.15400736 -0.22697318 0.020083189 0.07346861 -0.28443238 -0.27099484 0.3105645
-0.060487352 -0.24773166 -0.1545111 0.105287075 0.055967133 0.12585959 0.105230734 0.3148559
0.22096479 -0.2587628 -0.058534227 -0.027409118 -0.06895976 -0.15655196 -0.2812347 0.12504598
-0.10299941 0.12693581 -0.16863577 -0.32294878 -0.20311236 0.15289235 0.29287785 0.15927534
0.055720173 0.11804056 0.0045963926 0.24090314 -0.20962112 0.18343997 0.10626551 0.04789778
-0.2445496 -0.32155666 -0.024208387 -0.30516538 0.07970154 0.031215906 -0.1606364 0.061480284
0.27406883 0.10745736 -0.07612848 -0.1101321 -0.28308064 -0.3311716 -0.24055426 -0.17257313
0.042819064 0.22440037 -0.23072974 -0.25531936 -0.14288387 0.10250394 0.045849483 -0.15517771
-0.24481921 0.13824257 0.0897189 -0.08031182 0.06604552 -0.10071342 -0.27651054 -0.032105725
-0.27601355 0.13724737 -0.15963718 -0.22073886 -0.056735992 0.17814133 -0.1119442 0.2562085
-0.2938597 0.16880791 0.26566803 0.043778777 -0.30397987 0.066873714 0.25193167 0.30527127
00000000: 5615 b1bb 406e 523d f632 b1bd 5687 3fbe
00000010: 2098 013e 465f 093e cb81 1fbe d6e3 003e
00000020: 2bb5 1f3e 00ce 4dbc f07a c4bd 088e 6cbe
00000030: 171d 8c3e 5bcd de3d da39 8d3e b34b 623e
00000040: cb81 95bd 2659 193e f088 c1bd 641d 82be
00000050: 6b56 a1be 105e bf3d 006a a93c 03d3 99be
00000060: de8f 7bbe 783d 8e3e 6bca a2bc 8852 783e
00000070: 9edc 753e 4b37 c83d e872 6dbe 6bdc a53d
00000080: d336 19be a0e6 b23d 38d1 78be 6b1c 8abd
00000090: 0812 223e 508a 46be e007 49bd 16db f6bc
000000a0: d3d9 59be 0f77 833e bb37 2a3e c8ca 8ebe
000000b0: fe28 293e de6c 043e 169b fa3c 9055 e63d
000000c0: 3005 5f3e 90ae 8ebe 18bd 603e 6e6c 7abe
000000d0: b315 a33e 6242 9ebe d33b 683e 9f0f 9dbe
000000e0: d3c4 1cbe b8d1 233e 4697 113e be56 0abe
000000f0: e0d0 9abd 7379 4abe e8ed 773e 0fa3 a6be
00000100: 58f1 59be ab40 073c 2b89 8bbd 8651 a7be
00000110: 0e1c 6d3e f04d 523e aefe 533e 025d 9d3e
00000120: 9e83 a4be 00d9 683c 0369 81be 00e9 92be
00000130: abb2 91bc d7f6 923e 1720 98be cc27 a2be
00000140: ab87 253c 564e 7d3c 6bae 8c3d 4bf8 5bbe
00000150: ac0d a53e 7cc4 983e 00ec 3ebd 5bc3 023e
00000160: ab69 86be b0f5 253e 8b70 ebbd b41e 853e
00000170: 8067 c2bd 162b 283d 2614 e93d 4bbb 703e
00000180: 2b4d a9be 6067 c73d b072 1d3e 76a7 c8bd
00000190: be6a 9cbe c66b 97bd 0046 c73c 9eb3 8bbe
000001a0: 0654 563e 4f24 83be 385c 543e 06df 97be
000001b0: 56d5 b4b8 c36f 643e 1322 033e a088 583e
000001c0: 035a 583e 6646 ae3d d370 a6be 9e06 5f3e
000001d0: 1bd9 fc3d 0070 b63d eb5a 163d e4f6 8abe
000001e0: 5685 4e3a 6e0d 633e b8bc 9b3e 1311 8bbe
000001f0: 56b3 383c 7672 833e d26d a3be 5e45 72be
00000200: 2b12 0ebd c469 9dbe 0035 88be 8b74 263e
00000210: 2307 6abe 5b47 0e3e 9606 373d 48f6 08be
00000220: 84c8 a3be 4b40 67bd d783 9d3e b658 a7bd
00000230: 1609 d13d c8aa 13be a0b6 613e e396 21be
00000240: 530e a13e 80d0 1b3d 4029 193d 2849 8abe
00000250: 0b20 dfbd 68f3 193e 6389 523e 0b41 113d
00000260: 1092 34be 70a9 83be 0ca7 a13e 2b49 763c
00000270: 13a4 84be b09a 93be 16b8 e83d 861f a03e
00000280: 78b5 1cbe ab46 963a 77f3 a03e 2b75 d6bc
00000290: e029 243e f8cd 1c3e 96b1 1ebd 0353 24be
000002a0: 80fa 67bc 1bb4 1d3e a86b 68be 8085 a43c
000002b0: b676 963d 1fa1 91be d6bf 8abe 4f02 9f3e
000002c0: 96c1 77bd 5ead 7dbe 2838 1ebe c0a0 d73d
000002d0: cb3d 653d 56e1 003e 3683 d73d cb34 a13e
000002e0: 9844 623e 8f7c 84be 96c1 6fbd 1689 e0bc
000002f0: c63a 8dbd 284f 20be fffd 8fbe 0e0c 003e
00000300: 5bf1 d2bd 76fb 013e dbae 2cbe 8b59 a5be
00000310: b0fc 4fbe d08f 1c3e 16f4 953e 1319 233e
00000320: d63a 643d 40bf f13d 569d 963b 50af 763e
00000330: eba6 56be b0d7 3b3e bba1 d93d 7630 443d
00000340: 366b 7abe 13a3 a4be ab50 c6bc a33e 9cbe
00000350: 903a a33d 80b8 ff3c de7d 24be c0d2 7b3d
00000360: c052 8c3e 9b12 dc3d 40e9 9bbd f08c e1bd
00000370: f2ef 90be 538f a9be db53 76be 03b7 30be
00000380: 0b63 2f3d 36c9 653e 6b44 6cbe 38b9 82be
00000390: 2650 12be 96ed d13d abcc 3b3d e8e6 1ebe
000003a0: e3b1 7abe 768f 0d3e 8bbe b73d 867a a4bd
000003b0: e042 873d d642 cebd ca92 8dbe 4b81 03bd
000003c0: a651 8dbe 938a 0c3e ee77 23be 5e09 62be
000003d0: 0064 68bd ae6a 363e 0043 e5bd c32d 833e
000003e0: c774 96be fbdb 2c3e a405 883e 6051 333d
000003f0: 40a3 9bbe 16f5 883d 30fd 803e 844c 9c3e

conv1.conv_l.model.0.bias f4 [64]
0.0063984394 -0.26330137 -0.28109962 0.07992427 0.091708265 -0.036383074 0.02407698 -0.20868616
0.26496774 -0.13126934 0.1398493 -0.11172645 0.25916106 0.051431857 0.32702935 0.2475766
0.20176539 0.32837152 0.09587467 -0.10301268 -0.33094156 0.27993688 -0.1219306 0.06187455
0.32237113 -0.25614545 0.31135413 -0.013959965 -0.0745072 -0.11774103 0.028717082 0.2932479
-0.18196917 0.08296406 -0.049583398 -0.23495016 0.26601207 0.33028814 -0.15255556 0.07404852
0.3073854 0.3049893 0.082710706 -0.27578455 0.15852726 -0.25284123 0.17122221 -0.123935625
-0.26504835 -0.008310835 -0.30085573 -0.12877274 0.23986149 -0.07768615 0.038570724 -0.16701972
-0.25347912 -0.069288656 0.09978986 -0.008051118 -0.052842777 0.13607085 0.16167879 0.015579025
00000000: 00aa d13b 70cf 86be 4aec 8fbe 56af a33d
00000010: 8bd1 bb3d 6b06 15bd 163d c53c d3b1 55be
00000020: daa9 873e 786b 06be a834 0f3e d6d0 e4bd
00000030: c2b0 843e 36aa 523d 6470 a73e b884 7d3e
00000040: 969b 4e3e 5020 a83e f059 c43d 50f8 d2bd
00000050: 2c71 a9be e353 8f3e c0b6 f9bd 2b70 7d3d
00000060: d40d a53e 7f25 83be cf69 9f3e 56b8 64bc
00000070: 3b97 98bd 3622 f1bd 1640 eb3c 9724 963e
00000080: 2056 3abe 10e9 a93d f617 4bbd c696 70be
00000090: bc32 883e 871b a93e 8637 1cbe c0a6 973d
000000a0: 9f61 9d3e 8f27 9c3e 3b64 a93d a233 8dbe
000000b0: f854 223e 6874 81be e054 2f3e f6d1 fdbd
000000c0: 6bb4 87be 2b2a 08bc c309 9abe 00dd 03be
000000d0: 409e 753e eb19 9fbd 56fc 1d3d 3807 2bbe
000000e0: 04c8 81be 36e7 8dbd a05e cc3d d6e8 03bc
000000f0: ab71 58bd 2856 0b3e 208f 253e 2b3f 7f3c

conv1.conv_r.model.0.weight f4 [64, 1, 3, 3]
-0.3248281 0.13770764 0.26861975 -0.094555974 -0.22144768 0.24378106 0.016236108 0.25258386
0.08559434 0.21467571 -0.12455575 0.22855353 0.08044052 0.32144162 0.2913017 -0.059823554
0.07616036 0.20470977 0.19299877 -0.015695771 0.18013072 -0.0063795648 -0.32960647 -0.09565465
-0.22946787 -0.20688948 -0.2349488 -0.081363045 -0.09554156 -0.20018443 0.31723458 0.2562406
0.030250352 0.14865446 0.3094229 0.11234121 -0.29174715 0.09428843 0.029041886 -0.21733928
-0.30688667 0.28173286 -0.28335792 0.21887855 0.05562095 0.120796725 0.13759956 -0.2746715
-0.25654912 -0.15045524 -0.2577587 0.24690804 -0.11347358 0.27376693 0.14889567 0.061887942
0.11140089 0.2165556 -0.18643638 0.04029616 -0.2725876 -0.29847234 0.0005341371 -0.08671554
0.09781258 0.16491067 0.19481425 0.23402445 0.31801152 0.0608658 -0.023709297 -0.021802267
0.18904686 0.21337315 -0.17213683 -0.22168109 0.11848104 -0.28472084 0.056197606 -0.29802188
0.2091829 0.0134568615 0.17450158 0.18202464 0.17818913 0.1365051 0.24511902 0.26927918
-0.029033741 -0.18052098 0.24317503 -0.16457622 0.32891625 -0.14451146 0.026242893 -0.034542404
0.32389468 0.14058042 0.11721452 -0.04683896 0.24301498 -0.2325966 -0.06422405 0.19253139
0.2402252 0.14427273 0.11972078 -0.23771386 -0.043638866 0.3326864 -0.179829 0.22199345
0.2427079 -0.11166386 0.06832342 0.29849702 -0.047205053 0.056824446 0.3119211 0.17653191
-0.1711952 -0.045006394 0.120678745 0.11282115 -0.09942214 0.32837018 -0.16104297 -0.06143769
-0.074242115 0.13385722 -0.013618231 0.27985415 -0.0015753508 -0.28867376 -0.22291589 -0.011816224
0.23024464 0.09458073 -0.22940163 -0.28776583 -0.18789196 -0.18951416 -0.29998648 0.1979352
-0.32090586 0.12885773 0.30108237 -0.04186988 0.31460997 -0.24029689 -0.036736887 0.055517994
0.14383924 -0.11449393 0.0024081073 0.23649947 0.23112516 0.29753137 0.15255901 -0.1921603
0.026368182 0.2224497 -0.1822227 0.14179409 0.23871271 0.26675212 -0.26569676 -0.06303962
0.014596105 -0.21387021 -0.03096517 -0.2839366 0.25971037 -0.26709116 0.028090876 0.21450679
-0.074016854 0.26482853 -0.15271354 0.14496446 -0.21674089 0.25103962 -0.2945277 -0.08915007
0.26953107 0.08214645 -0.031790696 0.12945513 0.102448106 -0.16732323 -0.069832206 0.22045402
-0.21216774 0.12212448 0.30960155 -0.021316528 0.3296191 -0.09098141 0.05471202 -0.13167593
-0.10577631 -0.086933814 0.22265708 0.017395496 0.14409105 -0.013833682 -0.2372677 -0.0567923
-0.10523605 0.19154069 0.24865723 -0.2950463 0.057326436 0.25424445 0.24238274 -0.32986933
0.090108395 -0.25490397 -0.11904021 -0.0385774 -0.1943113 0.021773418 0.17260846 -0.16533336
-0.20775466 -0.00018318495 -0.060810648 -0.020696282 0.29947406 0.22074234 -0.019441288 -0.2159439
-0.12821436 -0.29862022 0.05848658 -0.05056163 -0.09046968 -0.19414668 -0.103977606 0.14985292
0.19123015 -0.30074477 0.18011174 0.15148143 0.1555717 -0.27362725 -0.2998116 -0.14232711
0.01840063 0.3240891 -0.21059489 0.12161931 0.08314359 -0.048840325 -0.023618579 0.23056173
00000000: de4f a6be 3b03 0d3e 8788 893e 90a6 c1bd
00000010: 2ec3 62be bea1 793e 9601 853c ac52 813e
00000020: 164c af3d f3d3 5b3e 1617 ffbd f009 6a3e
00000030: 00be a43d ff93 a43e 7f25 953e 8b09 75bd
00000040: f6f9 9b3d 709f 513e 78a1 453e 6b94 80bc
00000050: 3074 383e ab0b d1bb 2ec2 a8be 96e6 c3bd
00000060: a0f9 6abe d6da 53be 6b96 70be aba1 a6bd
00000070: 4bab c3bd 26fd 4cbe 926c a23e f831 833e
00000080: 96cf f73c e038 183e ae6c 9e3e 2613 e63d
00000090: e25f 95be 4b1a c13d 40e9 ed3c 308e 5ebe
000000a0: 4020 9dbe 4a3f 903e 4a14 91be b321 603e
000000b0: cbd2 633d 4664 f73d e6e6 0c3e bea1 8cbe
000000c0: 685a 83be f010 1abe f3f8 83be 76d5 7c3e
000000d0: d664 e8bd 2e2b 8c3e 1b78 183e 367e 7d3d
000000e0: 2626 e43d c0c0 5d3e 2ee9 3ebe 960d 253d
000000f0: 9a90 8bbe 5ed1 98be 5605 0c3a eb97 b1bd
00000100: f651 c83d 58de 283e 637d 473e 1ba4 6f3e
00000110: 68d2 a23e 6b4e 793d 003a c2bc ab9a b2bc
00000120: 8095 413e 7e7e 5a3e a344 30be 5e00 63be
00000130: 30a6 f23d eec6 91be 762f 663d 5396 98be
00000140: 0b34 563e 2b7a 5c3c 8bb0 323e ab64 3a3e
00000150: 3677 363e fec7 0b3e 7b00 7b3e f6de 893e
00000160: 2bd8 edbc 7eda 38be e002 793e ab86 28be
00000170: b667 a83e d0fa 13be 56fb d63c 567c 0dbd
00000180: 86d5 a53e 50f4 0f3e 2b0e f03d 36da 3fbd
00000190: ebd8 783e ce2d 6ebe e687 83bd f326 453e
000001a0: 98fd 753e 3bbc 133e 2b30 f53d 436b 73be
000001b0: abbe 32bd df55 aa3e 1825 38be 4052 633e
000001c0: 6b88 783e 06b0 e4bd 26ed 8b3d 9ad4 983e
000001d0: 165a 41bd c0c0 683d 1fb4 9f3e c8c4 343e
000001e0: cb4d 2fbe a058 38bd 6b26 f73d c60e e73d
000001f0: d69d cbbd 2320 a83e 73e8 24be 16a6 7bbd
00000200: 400c 98bd de11 093e 001f 5fbc 0b49 8f3e
00000210: 007c ceba 0ccd 93be 1044 64be d698 41bc
00000220: 40c5 6b3e 8bb3 c13d 43e8 6abe 0b56 93be
00000230: c066 40be 0010 42be d497 99be 86af 4a3e
00000240: c64d a4be 48f3 033e 7827 9a3e c07f 2bbd
00000250: 8f14 a13e 6310 76be 6b79 16bd d666 633d
00000260: 984a 133e cb7b eabd 56d1 1d3b eb2c 723e
00000270: 13ac 6c3e 0856 983e 6e38 1c3e abc5 44be
00000280: 1602 d83c dbc9 633e 9698 3abe 7832 113e
00000290: 1b71 743e bc93 883e 6809 88be eb1a 81bd
000002a0: 8024 6f3c cb00 5bbe abaa fdbc 2360 91be
000002b0: c2f8 843e 2cc0 88be d61e e63c aba7 5b3e
000002c0: 2696 97bd 9b97 873e f060 1cbe 9071 143e
000002d0: 53f1 5dbe 4488 803e 56cc 96be 5094 b6bd
000002e0: faff 893e 663c a83d f636 02bd e38f 043e
000002f0: 50d0 d13d c856 2bbe 3004 8fbd b3be 613e
00000300: 8042 59be 661c fa3d 1884 9e3e 00a0 aebc
00000310: d6c3 a83e 7654 babd b619 603d 0ed6 06be
00000320: 40a1 d8bd 5b0a b2bd 3800 643e 0081 8e3c
00000330: 9b8c 133e aba6 62bc 4ef6 72be 0b9f 68bd
00000340: 0086 d7bd 3e23 443e 00a0 7e3e 4f10 97be
00000350: 20cf 6a3d 542c 823e 2e33 783e a2e4 a8be
00000360: c08a b83d c682 82be 5bcb f3bd 5603 1ebd
00000370: 8bf9 46be 2b5e b23c 46c0 303e 264d 29be
00000380: a3bd 54be 5615 40b9 9614 79bd 408b a9bc
00000390: aa54 993e 480a 623e 5643 9fbc 6620 5dbe
000003a0: a04a 03be c0e4 98be a08f 6f3d b619 4fbd
000003b0: 2b48 b9bd 63ce 46be 36f2 d4bd 0b73 193e
000003c0: d6d1 433e 38fb 99be 366f 383e f31d 1b3e
000003d0: 304e 1f3e df18 8cbe e880 99be 33be 11be
000003e0: ebbc 963c 02ef a53e 30a6 57be 8b13 f93d
000003f0: 3047 aa3d cb0c 48bd c07b c1bc 6018 6c3e

conv1.conv_r.model.0.bias f4 [64]
0.33109182 -0.13513832 -0.10925007 -0.15454996 0.30709153 0.25802633 -0.3032887 -0.12767968
-0.120895505 -0.2690987 -0.09815224 -0.20623164 0.11599994 -0.24024968 0.1406481 -0.09940004
-0.25062066 -0.16836345 0.32831615 -0.090645716 -0.30991477 0.102050826 -0.06271565 -0.16984145
-0.08360052 -0.16765416 0.29138827 -0.1838092 0.28985915 0.07762794 0.21559057 0.04149882
-0.23807232 0.3106415 -0.008623958 0.098554574 -0.059787076 0.17777376 -0.13178055 0.30481666
0.13012469 -0.28887904 -0.033691924 -0.09545486 0.0065448284 0.08930652 0.074148655 0.27930647
0.2780521 -0.18313774 0.31916043 0.022355756 0.22920153 -0.04949125 -0.30487525 0.3288184
-0.17162871 0.21058492 -0.0017640591 0.2765931 -0.31801867 -0.31533754 -0.3109007 0.25222132
00000000: de84 a93e b361 0abe 80be dfbd 5842 1ebe
00000010: 1a3b 9d3e 071c 843e a848 9bbe 76be 02be
00000020: 1098 f7bd 4ec7 89be 0b04 c9bd 632e 53be
00000030: 6091 ed3d 0304 76be 0e06 103e 4092 cbbd
00000040: 5a51 80be 7867 2cbe 0e19 a83e 76a4 b9bd
00000050: 26ad 9ebe 0600 d13d 1071 80bd ebea 2dbe
00000060: c036 abbd 88ad 2bbe d830 953e 7b38 3cbe
00000070: 6b68 943e 66fb 9e3d c6c3 5c3e abfa 293d
00000080: 3bc9 73be 670c 9f3e 804b 0dbc fbd6 c93d
00000090: 4be3 74bd 530a 363e 7bf1 06be ee10 9c3e
000000a0: 683f 053e f4e7 93be 8b00 0abd d67d c3bd
000000b0: 0076 d63b 56e6 b63d 40db 973d 4201 8f3e
000000c0: d85c 8e3e 7688 3bbe ff68 a33e 6b23 b73c
000000d0: ceb3 6a3e 56b7 4abd 9c18 9cbe e35a a83e
000000e0: 70bf 2fbe 93a3 573e 0038 e7ba 9c9d 8d3e
000000f0: 58d3 a2be ec73 a1be 602e 9fbe 2723 813e

convs.0.conv_l.model.0.pa.0.weight f4 [8, 64, 1, 1]
0.05993393 -0.051785856 -0.041206688 0.024488077 -0.08271743 -0.097972095 0.052883536 0.100654855
0.0046438724 -0.09897056 -0.03545381 0.008482292 0.031204656 -0.09975952 -0.12498914 -0.08867085
0.05218336 -0.018826649 0.069983184 0.07269314 0.10576716 -0.06754735 0.053501427 -0.078409165
-0.03385149 -0.047348514 0.015445262 0.037934676 -0.08098945 -0.09787482 0.069565 -0.04451096
-0.070279434 0.041922837 0.12052156 0.1166071 -0.0052440464 -0.07702027 0.12145181 -0.02933015
-0.09149043 0.055897877 -0.044268593 0.028836772 0.065040946 -0.044725895 0.053094864 -0.084952265
0.07606596 -0.078583345 -0.07510549 0.021704823 0.12000878 -0.0502948 0.08563651 0.0032756627
-0.102892384 0.07762335 -0.12244798 -0.08210139 0.063384086 -0.123798594 -0.0036695004 0.08647224
-0.07518816 0.0060933977 0.024717405 -0.11554411 -0.031883597 -0.0887728 0.08512628 -0.006363064
-0.045167863 0.028262869 -0.045073092 0.12355535 -0.015892923 -0.11403191 -0.10445447 0.04611431
0.08533132 -0.06706983 -0.10657455 0.069721654 -0.069199294 -0.019032225 0.038646773 -0.098578826
-0.05560495 -0.045766905 0.020018682 0.0736575 0.053957433 -0.047276214 0.09352715 0.055243596
0.010583445 -0.075490534 -0.03240858 0.005457565 -0.008782014 -0.12276028 -0.09602013 -0.09039274
0.11228286 -0.11439483 -0.047982484 -0.11254901 -0.122560576 -0.01987055 -0.06873363 -0.0015522838
0.10661656 0.054008424 0.04713583 0.07541306 -0.02076833 -0.026820004 0.06279808 -0.1069465
-0.11065136 -0.0010056198 -0.07840608 -0.06691192 0.099357516 0.07123388 0.11092672 0.011161104
0.07150367 -0.06395838 0.07580985 0.08610228 0.046703532 -0.107247084 0.058811456 0.04649788
0.056571543 0.09382126 0.023121208 0.045222864 0.07478294 -0.080246106 -0.040429845 0.063708276
0.024380311 -0.040404707 -0.09595068 -0.08180721 0.00518246 -0.105155066 -0.036763415 -0.10742593
-0.1224 -0.080905035 0.08870004 -0.120519444 -0.020536691 -0.026850462 -0.015900597 -0.036363587
-0.0063103586 0.07910329 -0.07569249 0.08270098 0.01971735 -0.0055948794 0.10159652 0.005368024
0.036291227 -0.03358361 0.038591087 0.046231017 0.033746257 0.067131534 -0.009033099 -0.09566894
-0.124000326 -0.020289674 0.033114985 -0.076324895 0.035764053 -0.038964927 -0.081173345 -0.0050391555
-0.05537249 -0.097502634 0.04408537 0.01684101 0.045462355 0.051091626 -0.08011313 -0.014798388
0.010269761 0.119183004 -0.08219069 -0.060353786 0.08874123 -0.0477587 0.063143626 -0.110943034
0.05408977 0.058258116 -0.10889156 0.023057342 -0.054439634 0.09108366 -0.04566464 0.098523244
0.03240265 0.091942176 -0.11218062 0.116924286 -0.08862497 -0.077844515 -0.041023284 -0.11812124
-0.08551782 0.072662696 -0.010301635 0.024648502 0.074596986 0.10510212 0.0983493 -0.09958315
0.03202389 0.08652519 -0.02916351 -0.026624128 -0.033568352 -0.07681103 0.1148472 -0.045235366
0.09170735 0.08742505 -0.10804802 -0.08198838 0.121778145 -0.051625863 0.02876553 -0.03713204
0.02975753 -0.113261655 -0.08488777 0.11479999 -0.03408183 -0.08934094 0.01451458 -0.046329632
-0.096662894 0.04773657 -0.029483944 -0.08068603 0.003902629 0.06312573 -0.058851928 -0.015642464
00000000: 487d 753d 681d 54bd 58c8 28bd 389b c83c
00000010: c267 a9bd 98a5 c8bd 689c 583d 2224 ce3d
00000020: a02b 983b 14b1 cabd 0438 11bd 50f9 0a3c
00000030: e8a0 ff3c b84e ccbd 4efa ffbd 1099 b5bd
00000040: 38be 553d 583a 9abc 5853 8f3d 24e0 943d
00000050: 749c d83d 4456 8abd 5024 5b3d fc94 a0bd
00000060: dca7 0abd 84f0 41bd 200e 7d3c 6461 1b3d
00000070: ccdd a5bd 9872 c8bd 1878 8e3d 2051 36bd
00000080: aaee 8fbd 48b7 2b3d 02d4 f63d b4cf ee3d
00000090: 40d6 abbb cebc 9dbd babb f83d c845 f0bc
000000a0: 565f bbbd 2cf5 643d fc52 35bd 183b ec3c
000000b0: 3034 853d 8032 37bd 007a 593d 74fb adbd
000000c0: 78c8 9b3d 4ef0 a0bd e8d0 99bd 50ce b13c
000000d0: 2ac7 f53d ec01 4ebd 3262 af3d 80ac 563b
000000e0: 3eb9 d2bd fef8 9e3d 02c6 fabd c624 a8bd
000000f0: 84cf 813d 1e8a fdbd 007c 70bb 5c18 b13d
00000100: 40fc 99bd 20ab c73b 287c ca3c 64a2 ecbd
00000110: 6098 02bd 84ce b5bd b056 ae3d 4081 d0bb
00000120: f001 39bd 8887 e73c 909e 38bd 960a fd3d
00000130: e031 82bc 9089 e9bd 3aec d5bd 5ce2 3c3d
00000140: 30c2 ae3d e85b 89bd c243 dabd 3aca 8e3d
00000150: 5cb8 8dbd 78e9 9bbc 144c 1e3d b2e3 c9bd
00000160: 04c2 63bd 1476 3bbd 38fe a33c bed9 963d
00000170: 7802 5d3d b4a4 41bd 2a8b bf3d 1c47 623d
00000180: 3066 2d3c c89a 9abd dcbe 04bd 60d5 b23b
00000190: 70e2 0fbc be69 fbbd 34a6 c4bd d41f b9bd
000001a0: 8ef4 e53d d647 eabd 4889 44bd 1880 e6bd
000001b0: 0a01 fbbd 90c7 a2bc 38c4 8cbd 0076 cbba
000001c0: c859 da3d f037 5d3d 8011 413d 2a72 9a3d
000001d0: 5822 aabc a0b5 dbbc 489c 803d c406 dbbd
000001e0: 2e9d e2bd 00cf 83ba 5e93 a0bd 1e09 89bd
000001f0: f47b cb3d 12e3 913d 8c2d e33d 10dd 363c
00000200: 8470 923d 9cfc 82bd 3242 9b3d 6456 b03d
00000210: 344c 3f3d 5ca4 dbbd 48e4 703d 9074 3e3d
00000220: 90b7 673d 5c25 c03d b068 bd3c 9c3b 393d
00000230: cc27 993d 1258 a4bd c499 25bd 7c79 823d
00000240: 38b9 c73c 687f 25bd ca81 c4bd 8a8a a7bd
00000250: a0d1 a93b 8a5b d7bd 3c95 16bd 2002 dcbd
00000260: daac fabd 8ab1 a5bd 5ea8 b53d e6d2 f6bd
00000270: 903c a8bc 80f5 dbbc f841 82bc fcf1 14bd
00000280: 20c7 cebb e800 a23d aa04 9bbd 225f a93d
00000290: 4886 a13c 4055 b7bb d611 d03d 40e6 af3b
000002a0: 1ca6 143d f88e 09bd b011 1e3d bc5c 3d3d
000002b0: 8439 0a3d 427c 893d 90ff 13bc 14ee c3bd
000002c0: e2f3 fdbd 8836 a6bc 94a3 073d 3a50 9cbd
000002d0: 547d 123d b099 1fbd 363e a6bd 801f a5bb
000002e0: 44ce 62bd 76af c7bd dc92 343d 28f6 893c
000002f0: bc36 3a3d 7445 513d 5a12 a4bd f074 72bc
00000300: 8042 283c 3816 f43d 9853 a8bd 8835 77bd
00000310: f6bd b53d a09e 43bd 7251 813d 1a36 e3bd
00000320: 3c8d 5d3d 10a0 6e3d 8a02 dfbd c0e2 bc3c
00000330: 18fc 5ebd 128a ba3d d80a 3bbd 8ec6 c93d
00000340: a4b8 043d 2e4c bc3d f4be e5bd 0076 ef3d
00000350: 0281 b5bd f26c 9fbd 0808 28bd 8ce9 f1bd
00000360: f823 afbd 2ed0 943d 30c8 28bc a8eb c93c
00000370: 4ec6 983d c83f d73d 5c6b c93d 40f2 cbbd
00000380: 7c2b 033d 1e34 b13d 50e8 eebc d81a dabc
00000390: f87e 09bd 1a4f 9dbd 0235 eb3d b848 39bd
000003a0: 10d1 bb3d e80b b33d 4848 ddbd 86e9 a7bd
000003b0: d266 f93d a475 53bd b0a5 eb3c c417 18bd
000003c0: 10c6 f33c baf5 e7bd a4d9 adbd 421c eb3d
000003d0: 6499 0bbd 62f8 b6bd 90ce 6d3c 24c4 3dbd
000003e0: 32f7 c5bd 6c87 433d 5088 f1bc b83e a5bd
000003f0: 40c3 7f3b 1048 813d b80e 71bd a024 80bc

convs.0.conv_l.model.0.pa.0.bias f4 [8]
0.107966036 -0.10791583 0.006775096 0.09683783 -0.09780653 0.055575103 0.11501522 -0.042107776
00000000: 4c1d dd3d fa02 ddbd a001 de3b ea52 c63d
00000010: ca4e c8bd b8a2 633d 1a8d eb3d 3479 2cbd

convs.0.conv_l.model.0.pa.2.weight f4 [1, 8, 1, 1]
0.0047045997 0.2943119 -0.16111699 0.16213576 0.32485944 0.00424718 -0.097309105 0.061784834
00000000: 0b29 9a3b 0db0 963e dafb 24be eb06 263e
00000010: fa53 a63e ee2b 8b3b ff49 c7bd 1812 7d3d

convs.0.conv_l.model.1.ca.0.weight f4 [8, 64, 1, 1]
-0.041284055 -0.0690314 0.07264082 0.036096647 0.06912348 -0.10744788 0.08666198 -0.08137581
0.041408792 -0.083581254 -0.0084429085 0.066042334 0.118067235 0.12274639 0.048546225 0.08637844
-0.11057685 0.09232606 0.04806918 0.043846443 0.08735795 0.016045675 -0.10385761 -0.086073115
-0.086732894 -0.054952934 -0.027747408 0.0614447 -0.0044558346 -0.034695297 -0.10248315 0.110642344
0.06503214 -0.122234985 0.06203127 0.05769998 -0.047600597 0.07934651 -0.020019919 -0.06789677
-0.1024524 0.055348516 -0.0069559067 0.081475064 0.08239891 -0.08004536 -0.08679327 -0.05387439
-0.057268426 0.06268306 0.04048319 -0.08882083 -0.047021613 0.026514024 -0.082454875 -0.04285091
-0.10250683 -0.11079948 0.041324124 0.09358744 -0.07959321 -0.04226835 -0.041067153 -0.08665474
0.040277615 -0.115228996 0.080791175 -0.10027981 -0.08272825 -0.12236263 0.11376892 -0.032674313
-0.08061451 0.07176712 0.023455009 0.06442961 -0.1078427 0.011744708 0.015593469 0.06115845
-0.078897 -0.075695455 0.0015900582 -0.08361913 0.02948542 0.12005441 0.1028713 0.10203937
0.057941377 0.054423288 0.012832433 -0.119568914 0.069682896 0.01564312 0.104616866 0.031568557
0.08319558 0.029064253 0.10458419 0.10995664 0.063350916 -0.06318638 0.05111754 0.0068229884
-0.06509878 -0.041980043 0.0518115 0.083970144 0.09051891 0.029038876 -0.08498244 0.07079899
0.109239236 -0.050527677 -0.009524345 0.04250045 0.077965364 0.08086315 0.115426555 -0.09988378
0.061322555 0.054637596 -0.07702288 -0.120948404 0.043569386 -0.0780336 0.0708881 -0.039020523
0.11954293 -0.04160759 0.038177 -0.058563903 -0.0011936873 0.050448135 -0.010482639 0.035141796
-0.08795589 0.08150016 -0.1060168 -0.038735792 0.1064253 -0.04656306 0.1014023 0.03255856
-0.12383166 0.0938458 0.0701025 0.10009152 0.11267394 0.10186273 -0.079429045 0.08641927
-0.07711813 -0.03132698 -0.06904468 0.046699196 -0.1016324 0.0931955 0.09223235 -0.09830879
-0.04387802 0.06615138 0.063838854 -0.08079584 0.08842431 -0.044642106 -0.05612278 -0.10789773
0.090891406 0.029517889 0.07029346 0.123513535 0.07216206 0.075990364 0.11124356 0.07495496
-0.05344124 -0.042818546 0.05402273 -0.053217143 0.109419525 -0.025023624 -0.11608131 0.10623984
-0.0958655 0.019198567 0.088194266 -0.024354547 -0.06617263 -0.07941805 0.120784074 0.077230096
0.025105223 0.1236534 0.0048950613 0.10882804 -0.035032213 -0.11722037 0.02074477 -0.117332146
0.08665168 0.06374586 0.102277786 -0.12417522 0.047248453 -0.1098239 0.10716215 0.00081706047
0.09623666 -0.029068753 -0.100724995 0.021792054 -0.058841377 -0.12102507 0.10278599 0.04154378
-0.07383418 0.05875668 0.035768643 0.075620145 -0.0301307 0.010836005 0.044056788 -0.06623085
-0.021149918 0.098446384 0.110025525 -0.072036386 0.07272373 0.10014902 7.690489e-05 0.09809643
0.011526957 -0.07692006 -0.05674407 0.027768299 0.09110971 0.10054107 -0.12297101 -0.116814345
-0.04100515 0.034813017 0.03545271 0.1153263 -0.07544111 0.012346163 0.06871532 0.10548927
0.066970214 -0.108061016 -0.088321075 -0.10224405 0.0036654174 0.0041368604 0.034935445 0.003981471
00000000: 7819 29bd 5660 8dbd b6c4 943d 14da 133d
00000010: 9c90 8d3d a20d dcbd d67b b13d 5ca8 a6bd
00000020: 449c 293d a62c abbd 2054 0abc 3441 873d
00000030: 3ccd f13d 7662 fb3d 68d8 463d 2ee7 b03d
00000040: 1e76 e2bd 7215 bd3d 30e4 443d 5498 333d
00000050: bae8 b23d 3872 833c 4cb3 d4bd 1a47 b0bd
00000060: 04a1 b1bd 5416 61bd 884e e3bc 70ad 7b3d
00000070: 4002 92bb a81c 0ebd b0e2 d1bd 7498 e23d
00000080: 922f 853d 5656 fabd 8014 7e3d d056 6c3d
00000090: d8f8 42bd 6c80 a23d d000 a4bc 760d 8bbd
000000a0: 90d2 d1bd 20b5 623d 60ee e3bb 66dc a63d
000000b0: c2c0 a83d d2ee a3bd acc0 b1bd 64ab 5cbd
000000c0: 4c92 6abd fa5f 803d b4d1 253d b2e7 b5bd
000000d0: bc99 40bd f033 d93c 1ade a8bd 7084 2fbd
000000e0: 1aef d1bd d6ea e2bd 7c43 293d c6aa bf3d
000000f0: c401 a3bd 9421 2dbd 0836 28bd 0a78 b1bd
00000100: 24fa 243d 2efd ebbd d875 a53d 805f cdbd
00000110: 6e6d a9bd 4299 fabd aeff e83d 80d5 05bd
00000120: 3819 a5bd a4fa 923d b824 c03c acf3 833d
00000130: a2dc dcbd e06c 403c c07b 7f3c 4881 7a3d
00000140: c094 a1bd 3806 9bbd 8069 d03a 8240 abbd
00000150: 688b f13c 16df f53d 30ae d23d 04fa d03d
00000160: f053 6d3d f4ea 5e3d 203f 523c 8ce0 f4bd
00000170: e8b5 8e3d 0026 803c 5e41 d63d 084e 013d
00000180: 7262 aa3d 2818 ee3c 3c30 d63d f230 e13d
00000190: 20be 813d dc67 81bd a060 513d 6093 df3b
000001a0: 8252 85bd 44f3 2bbd 4c38 543d 8af8 ab3d
000001b0: fa61 b93d f0e2 ed3c 460b aebd 10ff 903d
000001c0: d2b8 df3d 1cf6 4ebd 000c 1cbc f414 2e3d
000001d0: 4eac 9f3d 949b a53d c264 ec3d de8f ccbd
000001e0: 5c2d 7b3d accb 5f3d 2cbe 9dbd ccb3 f7bd
000001f0: d075 323d 14d0 9fbd c82d 913d fcd3 1fbd
00000200: ecd2 f43d b86c 2abd 7c5f 1c3d b4e0 6fbd
00000210: 8075 9cba b4a2 4e3d 60bf 2bbc d8f0 0f3d
00000220: 3822 b4bd 8ee9 a63d 561f d9bd 6ca9 1ebd
00000230: 82f5 d93d e8b8 3ebd 02ac cf3d 205c 053d
00000240: 749b fdbd 3a32 c03d e691 8f3d c8fc cc3d
00000250: 98c1 e63d 689d d03d b2ab a2bd 96fc b03d
00000260: 1cf0 9dbd b850 00bd 4c67 8dbd a847 3f3d
00000270: a624 d0bd 48dd be3d 50e4 bc3d 1e56 c9bd
00000280: 70b9 33bd 607a 873d f2bd 823d 4a78 a5bd
00000290: ce17 b53d a4da 36bd 00e1 65bd 7cf9 dcbd
000002a0: 4625 ba3d 80cf f13c 04f6 8f3d aaf4 fc3d
000002b0: b4c9 933d d6a0 9b3d aad3 e33d fc81 993d
000002c0: 34e5 5abd 8062 2fbd f046 5d3d 38fa 59bd
000002d0: 5817 e03d 58fe ccbc 0abc edbd 4694 d93d
000002e0: 2255 c4bd 5046 9d3c 329f b43d 3083 c7bc
000002f0: 8485 87bd eea5 a2bd a45d f73d d02a 9e3d
00000300: 78a9 cd3c fe3d fd3d c066 a03b 3ce1 de3d
00000310: f07d 0fbd 3c11 f0bd f0f0 a93c d64b f0bd
00000320: 7076 b13d 308d 823d 0477 d13d 944f febd
00000330: 9887 413d 5aeb e0bd d477 db3d 0030 563a
00000340: ba17 c53d 9821 eebc e848 cebd 4085 b23c
00000350: a803 71bd fedb f7bd 7681 d23d d029 2a3d
00000360: 6036 97bd d8aa 703d 2482 123d bcde 9a3d
00000370: a8d4 f6bc 8089 313c e474 343d 0aa4 87bd
00000380: 9842 adbc 429e c93d 1055 e13d d087 93bd
00000390: 2ef0 943d ee1a cd3d 0048 a138 c8e6 c83d
000003a0: 90db 3c3c 4488 9dbd 786c 68bd 587a e33c
000003b0: ba97 ba3d 7ae8 cd3d 3ad8 fbbd 5c3c efbd
000003c0: 04f5 27bd 1898 0e3d dc36 113d 3230 ec3d
000003d0: de80 9abd 9047 4a3c 9eba 8c3d c20a d83d
000003e0: ae27 893d 184f ddbd aee1 b4bd 5465 d1bd
000003f0: 8037 703b 808e 873b 7818 0f3d 0077 823b

convs.0.conv_l.model.1.ca.0.bias f4 [8]
0.07506633 -0.05558519 -0.08340272 0.117060795 -0.053442925 0.018679366 0.10625765 0.106417015
00000000: 60bc 993d 4cad 63bd 0ccf aabd 92bd ef3d
00000010: f8e6 5abd 7805 993c 9c9d d93d 2af1 d93d

convs.0.conv_l.model.1.ca.2.weight f4 [64, 8, 1, 1]
-0.2719688 0.31113666 -0.0003628422 -0.3132388 0.09620031 0.337801 0.23219466 -0.22397223
0.30586073 -0.011765124 -0.26441845 0.050294507 -0.1444303 0.15898685 -0.3250883 0.1430609
-0.31332442 0.12324472 0.19105448 0.3084454 0.09832341 -0.31169698 -0.31420457 0.346199
0.29399276 -0.13845053 0.10887382 -0.12219269 0.050538242 0.34969056 0.18676431 0.13277829
0.063354 0.29790536 -0.3092054 -0.076031186 0.07491421 -0.009795897 0.17186384 0.28621343
0.007381936 -0.25955895 0.35185537 0.2617642 0.14828053 -0.051311005 -0.24795114 -0.27342147
0.3071726 -0.105077736 0.10651014 0.01642235 0.037297726 -0.13211481 0.32455748 -0.036046978
-0.0612274 0.102838516 -0.14018084 0.3000518 0.17513697 0.015729247 -0.33592942 -0.22425431
0.14098668 -0.13652949 0.26353556 -0.22888528 -0.1754419 0.33675504 -0.27032492 -0.34151873
0.00998678 -0.17964996 0.28496832 -0.26524696 -0.09371731 -0.07070715 -0.3249604 -0.30587193
-0.18901192 0.33603942 -0.060422566 0.05690735 0.10052466 -0.12704185 -0.20879215 0.26508728
0.18428153 -0.2936851 0.083784014 0.2745577 -0.18289034 -0.35263792 0.118329555 0.111027904
-0.273898 0.25484458 0.116447315 -0.22222853 0.35146928 -0.030724715 0.019432731 0.13104251
0.21868983 -0.32010633 0.26984802 0.11434014 -0.077710696 0.22186509 0.17432657 -0.277333
-0.25042093 0.11176147 0.18501097 0.09502386 0.3324204 0.09492613 0.27034438 0.1533449
0.14258143 -0.23231478 0.10880166 0.23544165 0.1390124 0.18392055 -0.19570568 -0.19491741
0.3076525 -0.31509975 -0.037395507 -0.17995553 -0.16474107 -0.10492858 -0.32325658 0.21095142
0.20330581 0.19369237 0.1930123 -0.18286113 -0.10655208 -0.04425474 -0.2782492 -0.10630295
0.31914553 -0.34504297 0.2468299 0.03380308 -0.31644183 0.33839312 0.20807342 0.047116887
-0.33642283 0.07280328 0.08773498 -0.27162758 0.15972038 0.07487417 -0.33736435 -0.3366275
-0.02510182 0.27628067 -0.159352 -0.055382516 -0.26013452 -0.12517606 -0.2348859 -0.19894712
0.1797397 0.06316704 0.12424798 -0.11049247 0.34701806 0.19688874 0.21662071 0.01252558
0.026362348 0.28152522 0.15929742 -0.2909226 0.009858654 0.16151093 0.22236033 0.23804337
-0.056914892 -0.28359208 -0.27727902 -0.044140015 0.19960693 -0.2468417 -0.1276795 -0.28981474
-0.24588142 -0.06772737 -0.18184632 -0.25322375 0.031677276 0.017688736 -0.28866607 0.30633894
0.11941268 -0.014054499 -0.04140595 -0.106917955 0.10744846 -0.052761868 -0.23588997 -0.2345993
0.21347648 0.2844923 -0.16889915 0.11021236 0.13987161 0.07247879 0.1019711 0.2895885
-0.14557454 -0.059949297 0.23265933 0.027212787 -0.12938918 -0.16849 -0.34150824 0.015700376
0.0109774 0.14669712 -0.2501822 -0.30092517 -0.25161242 0.21795754 0.29343462 0.35231072
0.1501272 -0.14721178 0.19610283 -0.30479002 -0.19887866 -0.021608604 0.09722696 -0.06682294
0.10569932 -0.19902533 0.3433172 0.113410845 -0.030153204 -0.3294749 0.023593385 0.22103232
-0.09830588 -0.34704697 -0.22967465 -0.23704003 -0.16287397 0.0130198775 -0.32930803 -0.10369882
00000000: 7f3f 8bbe 4e4d 9f3e db3b beb9 d660 a0be
00000010: ab04 c53d 41f4 ac3e 70c4 6d3e fa58 65be
00000020: c799 9c3e 82c2 40bc db61 87be 9d01 4e3d
00000030: 89e5 13be 73cd 223e f971 a6be 8e7e 123e
00000040: 0f6c a0be ba67 fc3d c9a3 433e 8eec 9d3e
00000050: c95d c93d bf96 9fbe 6cdf a0be ff40 b13e
00000060: 3886 963e fac5 0dbe 3df9 de3d 2940 fabd
00000070: 3001 4f3d a40a b33e 253f 3f3e 08f7 073e
00000080: bebf 813d 0d87 983e 2c50 9ebe 3db6 9bbd
00000090: 9f6c 993d f87e 20bc 13fd 2f3e 918a 923e
000000a0: 2be4 f13b e9e4 84be 6326 b43e f505 863e
000000b0: dad6 173e 7d2b 52bd e7e6 7dbe e6fd 8bbe
000000c0: ba45 9d3e ff32 d7bd fd21 da3d 2a88 863c
000000d0: 80c5 183d 1b49 07be 662c a63e ffa5 13bd
000000e0: 95c9 7abd 009d d23d 918b 0fbe 64a0 993e
000000f0: 1b57 333e 9fda 803c f1fe abbe eca2 65be
00000100: d05e 103e 63ce 0bbe 22ee 863e e760 6abe
00000110: 0ba7 33be 286b ac3e 0768 8abe 8bdb aebe
00000120: 979f 233c 29f6 37be 5ee7 913e 73ce 87be
00000130: dcee bfbd e9ce 90bd 3661 a6be 3f9b 9cbe
00000140: 578c 41be 5c0d ac3e a77d 77bd ae17 693d
00000150: dfdf cd3d 4217 02be 9ccd 55be 85b9 873e
00000160: 4cb4 3c3e e55d 96be f496 ab3d d492 8c3e
00000170: 9b47 3bbe f58c b4be c456 f23d 9962 e33d
00000180: 5c3c 8cbe fd7a 823e ee7b ee3d e08f 63be
00000190: c8f3 b33e 66b2 fbbc 6431 9f3c 0230 063e
000001a0: 3af0 5f3e fae4 a3be 8529 8a3e 2a2b ea3d
000001b0: c926 9fbd 9a30 633e aa82 323e 97fe 8dbe
000001c0: 2c37 80be 33e3 e43d 8473 3d3e df9b c23d
000001d0: 0233 aa3e a168 c23d 946a 8a3e 7206 1d3e
000001e0: de00 123e ede3 6dbe 68d3 de3d 9e17 713e
000001f0: 4459 0e3e ab55 3c3e 1267 48be 6e98 47be
00000200: a184 9d3e c154 a1be 082c 19bd 4346 38be
00000210: e2b1 28be cce4 d6bd e381 a5be a603 583e
00000220: 662f 503e 4b57 463e 04a5 453e f33f 3bbe
00000230: fa37 dabd 7544 35bd ae76 8ebe 5cb5 d9bd
00000240: 0b67 a33e 79a9 b0be fac0 7c3e 1975 0a3d
00000250: aa04 a2be dd41 ad3e 3311 553e a3fd 403d
00000260: 9d3f acbe e319 953d 66ae b33d c512 8bbe
00000270: bd8d 233e a157 993d 05bb acbe 715a acbe
00000280: 55a2 cdbc a974 8d3e 2c2d 23be c7d8 62bd
00000290: 5a30 85be 272e 00be ee85 70be cbb8 4bbe
000002a0: af0d 383e b95d 813d ba75 fe3d e049 e2bd
000002b0: 5aac b13e 349d 493e d2d1 5d3e 1738 4d3c
000002c0: daf5 d73c 1324 903e dd1e 233e cff3 94be
000002d0: 3186 213c 1f63 253e 6db2 633e a4c1 733e
000002e0: 971f 69bd fb32 91be 84f7 8dbe 29cc 34bd
000002f0: c265 4c3e 12c4 7cbe 6abe 02be 9962 94be
00000300: 57c8 7bbe a6b4 8abd ec35 3abe 8ba6 81be
00000310: 08c0 013d f8e7 903c 0acc 93be 75d8 9c3e
00000320: a38e f43d d744 66bc 4999 29bd cdf7 dabd
00000330: f00d dc3d d41c 58bd 248d 71be cd3a 70be
00000340: 9499 5a3e faa8 913e e6f3 2cbe 05b7 e13d
00000350: 813a 0f3e c36f 943d 39d6 d03d f244 943e
00000360: 7e11 15be 658d 75bd 3f3e 6e3e 5aed de3c
00000370: 997e 04be a488 2cbe 2bda aebe 139e 803c
00000380: 8dda 333c c537 163e e217 80be dd12 9abe
00000390: 58d3 80be 4330 5f3e 103d 963e 1262 b43e
000003a0: f2ba 193e afbe 16be 2ecf 483e 700d 9cbe
000003b0: d9a6 4bbe 8704 b1bc ee1e c73d 77da 88bd
000003c0: e378 d83d 4ccd 4bbe 46c7 af3e f243 e83d
000003d0: da03 f7bc efb0 a8be ea46 c13c 4c56 623e
000003e0: 9854 c9bd 24b0 b1be d52f 6bbe 9fba 72be
000003f0: 6fc8 26be 5351 553c 109b a8be 0c60 d4bd

convs.0.conv_l.model.1.ca.2.bias f4 [64]
-0.29567102 0.19390075 -0.2895925 -0.02464499 0.2625788 -0.08852044 -0.21615428 -0.3224803
0.22379702 0.19186118 0.31432542 -0.34900296 0.2457238 0.17177783 -0.3329151 -0.17278998
0.20413527 0.09547757 -0.015742438 -0.1371594 0.28817984 -0.15732698 0.06846772 -0.087217085
0.09703667 0.024235997 0.2198485 0.24399851 -0.22049014 -0.3127793 -0.012856011 0.18411808
0.18099484 0.14014855 -0.29433176 -0.042945616 -0.2637387 0.17550728 -0.13982971 0.114619575
0.27531064 -0.013015832 -0.001362439 -0.1272804 0.2878787 0.047994006 0.022437548 -0.1648265
-0.2885532 0.27513257 -0.056227434 -0.22305718 0.17101635 0.102611266 -0.016862616 -0.28524223
0.29499775 0.2352744 -0.33017224 0.14801367 -0.22502838 0.32553223 0.17053929 -0.34677732
00000000: 3162 97be eb8d 463e 7845 94be 4ae4 c9bc
00000010: ba70 863e 344a b5bd 8c57 5dbe 231c a5be
00000020: 0c2b 653e 4277 443e 43ef a03e 84b0 b2be
00000030: 059f 7b3e 87e6 2f3e d973 aabe dbef 30be
00000040: d608 513e bf89 c33d 49f6 80bc 8473 0cbe
00000050: 4f8c 933e 531a 21be ce38 8c3d df9e b2bd
00000060: 29bb c63d 928a c63c f71f 613e bfda 793e
00000070: 2bc8 61be 9c24 a0be 05a2 52bc 7389 3c3e
00000080: b656 393e 1a83 0f3e a7b2 96be bee7 2fbd
00000090: c208 87be 2eb8 333e 852f 0fbe abbd ea3d
000000a0: 84f5 8c3e 5b40 55bc de93 b2ba cb55 02be
000000b0: d664 933e 5d95 443d f3ce b73c 47c8 28be
000000c0: 3fbd 93be 2dde 8c3e bd4e 66bd 1a69 64be
000000d0: e91e 2f3e db25 d23d 7823 8abc 450b 92be
000000e0: f209 973e c6eb 703e 560c a9be e590 173e
000000f0: d76d 66be 29ac a63e daa1 2e3e cc8c b1be

convs.0.conv_l.model.2.weight f4 [64, 64, 3, 3]
0.026889633 0.02720885 0.022375893 -0.026291247 0.035820212 0.007425174 0.01836279 -0.0215864
-0.030230254 0.019615542 -0.02430678 -0.032120507 -0.023339188 0.028404787 0.03673355 0.013021156
0.03185199 0.021024864 0.027924787 -0.032212958 0.012018308 -0.018272853 0.026004236 0.024420526
-0.023658907 -0.02135319 0.023477986 -0.0025100212 0.016234662 0.017496398 0.01906098 -0.005817185
0.015453607 -0.026343485 -0.02485846 -0.025080627 0.009091268 0.002429689 -0.018210616 0.041377198
-0.0027078888 0.032142915 0.012690674 -0.017523035 -0.01894412 -0.002080212 -0.021629294 -0.030715656
-0.014171308 -0.029867819 -0.009653693 -0.030987075 -0.024886996 -0.014763197 0.0043559074 0.019853448
-0.0014406344 -0.024902916 0.010058011 0.010088181 0.017439842 0.04130312 0.03090646 -0.039870203
0.029748013 -0.03693848 -0.0072342656 -0.016968813 0.033578195 0.0364651 -0.027763333 -0.026666984
0.024175888 -0.005331909 0.022902828 0.029419884 0.016574085 -0.02128011 -0.038637113 -0.011436557
0.008774276 -0.018883204 -0.013674026 -0.032034263 0.019978952 0.036116354 -0.0025368184 0.03147545
-0.029995799 0.014228682 0.01861317 -0.011897445 -0.010852233 -0.006146928 -0.0062745064 -0.014136205
0.03533177 0.023210302 0.032543905 0.0333077 0.024593463 0.028697884 -0.033103757 0.03211712
-0.01902607 -0.013259198 -0.03043977 0.021638086 0.02779105 -0.024573397 0.013664937 -0.010045281
-0.021422654 0.01867049 -0.032056727 -0.0012950003 0.021559503 -0.012353605 0.01937747 0.020895138
-0.019484114 -0.017914375 0.03809941 0.0150967445 9.011229e-05 0.007852539 0.01402167 -0.005831679
0.028638622 0.015488714 -0.026041558 0.013294439 0.00654757 -0.03204403 0.00097068155 0.024003005
0.016524449 -0.0053358823 -0.016024243 -0.021064397 -0.0027114004 0.028159922 0.037337646 0.028186318
-0.039649017 -0.035884187 -0.010032317 -0.012314911 -0.036387153 0.025813147 0.035817906 0.034494277
0.01781727 0.037368115 -0.016276058 -0.0052393824 0.032128662 -0.0031728446 -0.006939183 0.027590703
-0.011129981 -0.041162133 -0.019223815 0.029872295 0.021377545 -0.00920486 0.0010385464 0.017670413
0.016334435 0.016150858 0.010508875 -0.017544866 0.037605118 0.0038174342 -0.025795564 -0.028901195
-0.007096663 0.014262587 0.016574686 0.038820215 0.04037299 0.026128322 -0.009206429 0.032685116
0.022403803 0.009420509 -0.029493993 0.03704589 0.00037242472 0.035292596 -0.024358332 -0.020681664
0.04001832 0.015359606 0.005307759 0.036040746 -0.0054365396 -0.03199872 -0.010944719 -0.032058373
0.0043824962 -0.026760723 -0.038632005 0.021562055 0.0064757615 0.0072849146 -0.019800544 -0.016500156
-0.011521226 -0.02788057 -0.007924154 -0.031226795 -0.022102188 -0.029947236 0.0086886985 0.00720947
0.03422632 -0.033713635 -0.022731489 -0.028993031 -0.0013477107 -0.01123107 0.032794666 0.004583677
-0.008815895 0.00084260607 0.0034282308 -0.030419316 0.03951446 -0.019128095 -0.020513412 0.018681815
-0.026828041 -0.01454716 0.008390114 -0.01581726 0.041537326 -0.027423998 -0.013059711 0.04114403
-0.028122034 -0.008169478 -0.0035784394 0.037685733 -0.0329988 0.040830187 0.034556203 -0.023469295
-0.017135527 -0.023467561 -0.03445378 -0.038790148 0.007522717 -0.029213533 -0.03796526 -0.024515232
00000000: a647 dc3c 18e5 de3c a64d b73c be60 d7bc
00000010: 37b8 123d e04e f33b 906d 963c f6d5 b0bc
00000020: 70a5 f7bc c6b0 a03c 031f c7bc cb90 03bd
00000030: d331 bfbc 28b1 e83c eb75 163d b056 553c
00000040: 3b77 023d 563c ac3c 86c2 e43c bcf1 03bd
00000050: 70e8 443c f3b0 95bc d606 d53c 8e0d c83c
00000060: 53d0 c1bc e3ec aebc e854 c03c 2b7f 24bb
00000070: 8efe 843c 9b54 8f3c c625 9c3c 169e bebb
00000080: 2031 7d3c 4bce d7bc f8a3 cbbc e375 cdbc
00000090: 8bf3 143c 6b3b 1f3b 6e2e 95bc 237b 293d
000000a0: d676 31bb 4aa8 033d 8bec 4f3c 788c 8fbc
000000b0: b330 9bbc 2b54 08bb eb2f b1bc 669f fbbc
000000c0: c62e 68bc 5bad f4bc 862a 1ebc 9bd8 fdbc
000000d0: d0df cbbc 56e1 71bc 00bc 8e3b b3a3 a23c
000000e0: abd3 bcba 3301 ccbc 5bca 243c e648 253c
000000f0: 00de 8e3c 762d 293d 8b2f fd3c f04e 23bd
00000100: 1bb2 f33c ce4c 17bd 6b0d edbb 2e02 8bbc
00000110: 4a89 093d 6e5c 153d ee6f e3bc b874 dabc
00000120: 830c c63c 4bb7 aebb b69e bb3c f801 f13c
00000130: 60c6 873c a053 aebc f341 1ebd 6660 3bbc
00000140: fbc1 0f3c f3b0 9abc 0609 60bc 5c36 03bd
00000150: e6aa a33c beee 133d c040 26bb 67ec 003d
00000160: c0b9 f5bc 6b1f 693c a67a 983c 80ed 42bc
00000170: 90cd 31bc 2b6c c9bb 609a cdbb 8b9b 67bc
00000180: 0cb8 103d 8823 be3c c24c 053d a86d 083d
00000190: 3b78 c93c d317 eb3c ce97 07bd 3e8d 033d
000001a0: 90dc 9bbc 1b3d 59bc d35c f9bc 5b42 b13c
000001b0: 0eaa e33c 264e c9bc e6e2 5f3c f694 24bc
000001c0: 907e afbc dbf2 983c ea4d 03bd 00bd a9ba
000001d0: 8e9d b03c c666 4abc 80bd 9e3c 482c ab3c
000001e0: 269d 9fbc 2bc1 92bc 200e 1c3d 5658 773c
000001f0: abfa bc38 f0a7 003c 26bb 653c ab17 bfbb
00000200: 8b9b ea3c 60c4 7d3c 1b55 d5bc ebd0 593c
00000210: 008d d63b 9a40 03bd 5675 7e3a f3a1 c43c
00000220: 485e 873c a0d8 aebb 4645 83bc 3e8f acbc
00000230: c0b1 31bb a3af e63c 5cef 183d fee6 e63c
00000240: 0267 22bd 4cfb 12bd 965e 24bc 7bc4 49bc
00000250: b20a 15bd 1876 d33c ccb5 123d df49 0d3d
00000260: 86f5 913c 4f0f 193d 5e55 85bc 20af abbb
00000270: 5899 033d 80ef 4fbb 1662 e3bb e605 e23c
00000280: 865a 36bc a099 28bd 437b 9dbc beb6 f43c
00000290: f61f af3c fbcf 16bc d61f 883a 8bc1 903c
000002a0: cbcf 853c ce4e 843c 6b2d 2c3c 40ba 8fbc
000002b0: d307 1a3d eb2d 7a3b 3851 d3bc 33c2 ecbc
000002c0: 208b e8bb a0ad 693c a3c7 873c f201 1f3d
000002d0: 265e 253d 100b d63c 90d6 16bc d4e0 053d
000002e0: 2e88 b73c 7b58 1a3c 639d f1bc 6ebd 173d
000002f0: 0042 c339 f88e 103d 208b c7bc 986c a9bc
00000300: 40ea 233d dba6 7b3c b6ec ad3b 769f 133d
00000310: 0025 b2bb 1711 03bd 7b51 33bc a44f 03bd
00000320: 0b9b 8f3b 4e39 dbbc 983c 1ebd e8a2 b03c
00000330: a032 d43b 4bb6 ee3b c034 a2bc 562b 87bc
00000340: 86c3 3cbc cb65 e4bc 50d4 01bc 56cf ffbc
00000350: a60f b5bc e853 f5bc 0b5b 0e3c 6b3d ec3b
00000360: e630 0c3d 4f17 0abd 6337 babc cb82 edbc
00000370: aba5 b0ba 8602 38bc b353 063d ab32 963b
00000380: 8b70 10bc 56e2 5c3a 2bac 603b ee31 f9bc
00000390: ead9 213d 86b2 9cbc be0b a8bc 9b0a 993c
000003a0: 7bc6 dbbc 3657 6ebc b076 093c 3393 81bc
000003b0: 0b23 2a3d 4ba8 e0bc 66f8 55bc a486 283d
000003c0: 2e60 e6bc 46d9 05bc 4084 6abb 5b5c 1a3d
000003d0: c029 07bd 8e3d 273d ce8a 0d3d ae42 c0bc
000003e0: ce5f 8cbc 0b3f c0bc 681f 0dbd 6be2 1ebd
000003f0: 2081 f63b 3851 efbc 7681 1bbd 2bd4 c8bc

convs.0.conv_l.model.2.bias f4 [64]
0.02487902 -0.0112068355 -0.0120440675 0.03200066 0.014094999 0.007220949 -0.0063281506 -0.020005297
0.007230277 0.0060583455 -0.009142816 -0.009999762 0.03361915 0.03601062 -0.039499193 -0.0037968457
-0.016584938 0.033429444 0.0334969 0.0021778743 -0.00076295936 0.012898962 0.021067426 0.017239174
0.007151862 -0.03347852 0.009269601 0.02429854 -0.009639601 0.02966648 0.039667062 0.030726463
-0.008225605 -0.032294925 -0.018519392 -0.032011002 -0.0100708855 -0.02364277 -0.008758649 0.016426176
-0.026621282 0.029826617 0.003760954 -0.02995905 -0.033979893 0.03708008 0.041422974 0.022096321
-0.033159755 0.017289773 0.039027415 0.027116751 0.016719198 0.030347954 -0.0043543726 0.038472056
-0.000977238 -0.011351387 -0.026131809 0.034302723 0.00730903 -0.018175006 -0.014515042 0.025671294
00000000: 16cf cb3c e09c 37bc 7b54 45bc 2013 033d
00000010: b6ee 663c b69d ec3b 605c cfbb 26e2 a3bc
00000020: f6eb ec3b 1685 c63b c0cb 15bc 0bd6 23bc
00000030: 3cb4 093d df7f 133d e8c9 21bd 80d4 78bb
00000040: 23dd 87bc 50ed 083d 0c34 093d abba 0e3b
00000050: 5601 48ba 2b56 533c 9895 ac3c 2b39 8d3c
00000060: 2b5a ea3b c620 09bd 86df 173c bb0d c73c
00000070: 6bef 1dbc 1e07 f33c ee79 223d 10b6 fb3c
00000080: b0c4 06bc af47 04bd fbb5 97bc f81d 03bd
00000090: 5b00 25bc 7bae c1bc 7080 0fbc 3090 863c
000000a0: e014 dabc f356 f43c 567a 763b ae6c f5bc
000000b0: 802e 0bbd 48e1 173d 23ab 293d 5803 b53c
000000c0: 86d2 07bd 48a3 8d3c 36db 1f3d f323 de3c
000000d0: b3f6 883c 469c f83c 20af 8ebb e094 1d3d
000000e0: ab16 80ba 2bfb 39bc 6012 d6bc 0381 0c3d
000000f0: 9680 ef3b c0e3 94bc 80d0 6dbc 9b4c d23c
